model_nn.pt (torch, 14738 bytes, 5 tensors)

layers.0.weight f4 [64, 13]
0	0xbe7201e1	-0.23633529
1	0xbe015ef2	-0.12633875
2	0x3e0479ba	0.1293706
3	0xbdd33138	-0.10312122
4	0x3e1d9d9d	0.15392156
5	0xbd9aa249	-0.07550485
6	0xbe735668	-0.2376343
7	0xbe8003cd	-0.250029
8	0x3dc2c1b1	0.095096
9	0xbe5e7e3d	-0.21727844
10	0x3dc50e86	0.09621911
11	0x3dd3b0f9	0.10336489
12	0xbe12620f	-0.14295219
13	0xbc860a19	-0.016362237
14	0xbe6095a2	-0.2193208
15	0x3e0a5f7c	0.13512987
16	0x3dbc2c8d	0.09188185
17	0x3e879f39	0.26488665
18	0xbde4350f	-0.111429326
19	0xbdd6a0a6	-0.1047986
20	0xbe305b94	-0.17222434
21	0x3e7484e9	0.23878826
22	0x3dba9c25	0.091118135
23	0xbd96d838	-0.07365459
24	0x3e74506c	0.23858804
25	0xbdb19c7d	-0.08672426
26	0xbdfc4bdc	-0.123191565
27	0xbe2bb65a	-0.1676878
28	0x3d997c99	0.07494468
29	0x3e092bcb	0.13395612
30	0x3b68f10b	0.0035544063
31	0x3e3f7b43	0.18699364
32	0x3e1f3be8	0.15550196
33	0x3cdff30e	0.027337577
34	0x3e08a6cd	0.1334488
35	0xbd387caa	-0.045040764
36	0x3dfb947a	0.12284179
37	0xbdcdb69a	-0.10044594
38	0x3e3d7b7b	0.18504135
39	0x3dc63c51	0.09679473
40	0x3dcec2fe	0.100957856
41	0xbe91b2de	-0.28456777
42	0x3e746735	0.23867495
43	0xbca84dcc	-0.020544909
44	0xbe3f4489	-0.18678488
45	0x3e471f47	0.19445525
46	0xbe5b3ef5	-0.21410735
47	0xbe8686eb	-0.2627481
48	0xbe71e46f	-0.23622297
49	0xbe703c7c	-0.23460573
50	0xbe2482d0	-0.16065526
51	0x3dfe2585	0.124095
52	0xbcac2a11	-0.021016153
53	0x3cd3da61	0.025860967
54	0xbdd6c4e6	-0.10486774
55	0x3d2509cf	0.040292557
56	0xbe1e29bb	-0.15445606
57	0xbe8e75be	-0.27824205
58	0xbe0adcd7	-0.13560806
59	0xbe82f51d	-0.25577632
60	0xbdbfe36c	-0.09369549
61	0xbd375179	-0.044755433
62	0xbe8307f1	-0.25591996
63	0xbe30a266	-0.1724945
64	0x3e27cf9b	0.16387789
65	0x3e614c22	0.22001699
66	0xbe6b36bd	-0.229701
67	0x3e6bcb84	0.23026854
68	0xbe359388	-0.1773206
69	0xbd2670bc	-0.040634856
70	0x3ca2f552	0.019892368
71	0x3e3410ab	0.17584483
72	0xbd143f76	-0.036193334
73	0xbe759bf4	-0.23985273
74	0xbdcd228c	-0.10016355
75	0x3e1384ad	0.1440608
76	0x3e1a382b	0.15060489
77	0x3e0e04aa	0.13868967
78	0x3df33389	0.11875064
79	0x3e7cf7e7	0.24703942
80	0xbe7a81a8	-0.24463522
81	0xbdc52419	-0.09626026
82	0x3d2856b1	0.0410983
83	0x3e189308	0.14899838
84	0xbd6c06d4	-0.0576237
85	0xbe7e4f80	-0.24835014
86	0xbe85772d	-0.26067486
87	0x3e807525	0.25089374
88	0x3e581109	0.21100248
89	0xbe67b47a	-0.2262744
90	0x3d2a0df8	0.041517228
91	0xbd5f3cc2	-0.054501303
92	0x3da12556	0.078684494
93	0x3e5d4a06	0.21610269
94	0xbd386b4d	-0.045024205
95	0x3e6850db	0.22687094
96	0x3e0978f9	0.13425054
97	0x3e3a05be	0.18166253
98	0xbdd73939	-0.10508961
99	0xbd077b0f	-0.033076342
100	0xbe4bd435	-0.1990517
101	0xbe12a18d	-0.14319439
102	0xbdc20c96	-0.09475057
103	0xbe665b68	-0.22495806
104	0xbdb96fdb	-0.09054538
105	0x3e5d95fa	0.21639243
106	0x3c68b0fe	0.0142023545
107	0xbe20a75c	-0.15688843
108	0x3d8df646	0.069317386
109	0x3d1871fb	0.037218075
110	0xbdde3200	-0.108493805
111	0xbd6aaf29	-0.057295952
112	0xbda770d8	-0.0817582
113	0x3e84e29c	0.2595414
114	0xbe60425a	-0.21900311
115	0x3e221071	0.15826584
116	0x3b224ca5	0.0024764922
117	0x3e1329b4	0.14371377
118	0x3d91064a	0.07081278
119	0xbda8c711	-0.08241094
120	0x3e97fe91	0.29686406
121	0x3d89149e	0.066933855
122	0x3d73ee40	0.059553385
123	0xbda0b2dc	-0.07846615
124	0x3e67864f	0.22609828
125	0x3e85fcc5	0.2616941
126	0x3da5137e	0.080603585
127	0xbde125c2	-0.1099353
128	0x3e8c4dfa	0.2740324
129	0xbcc65776	-0.024211626
130	0xbe5560a5	-0.20837648
131	0xbdc0c652	-0.094128266
132	0xbb5493e8	-0.0032436792
133	0xbe504806	-0.20339975
134	0x3e56aef4	0.20965177
135	0x3e93189e	0.2872972
136	0xbe04979f	-0.12948464
137	0xbe6d8350	-0.23194623
138	0xbdf6ce7b	-0.12051102
139	0xbe82f66e	-0.25578636
140	0xbd3b21c6	-0.045686506
141	0x3db23348	0.08701187
142	0x3e58744e	0.21138117
143	0xbb918d14	-0.0044418667
144	0x3e3cf92c	0.18454427
145	0x3e18b986	0.14914522
146	0x3d7d82c3	0.061892282
147	0x3e1cb322	0.15302709
148	0x3e704f9d	0.2346787
149	0xbde1f662	-0.11033322
150	0x3e5a1833	0.21298294
151	0x3c3d8db3	0.011569428
152	0x3e548509	0.20753874
153	0x3e56e24f	0.20984767
154	0xbdc8f03c	-0.09811446
155	0x3cbb312d	0.022850597
156	0x3d20a48f	0.039219435
157	0xbe834dbf	-0.25645253
158	0xbd8d8884	-0.06910804
159	0xbe95c6a5	-0.29253116
160	0xbe78c44a	-0.24293628
161	0xbcdf2c41	-0.027242782
162	0x3e952424	0.29129136
163	0x3db91ca7	0.09038668
164	0x3d4a47ea	0.04938499
165	0x3de85982	0.11345197
166	0xbbcc3e28	-0.0062329955
167	0x3e44a309	0.19202818
168	0x3e8d383e	0.27581972
169	0xbde7be8a	-0.11315639
170	0xbd367d6e	-0.044553213
171	0xbe95a7c0	-0.29229546
172	0x3e188d47	0.14897643
173	0x3c84e2e9	0.01622148
174	0xbd355431	-0.044269744
175	0x3b070c82	0.002060682
176	0xbd70eefa	-0.058821656
177	0xbe341006	-0.17584237
178	0xbe4bdab5	-0.19907649
179	0xbd4ad419	-0.04951868
180	0x3e006363	0.12537913
181	0xbcb6d75b	-0.022319486
182	0xbe78a8c7	-0.24283133
183	0x3dd75547	0.10514312
184	0xbdc0d1de	-0.09415029
185	0xbe60ed7e	-0.21965596
186	0xbe8120b1	-0.25220254
187	0x3e142226	0.14466152
188	0x3e510bca	0.20414653
189	0x3ddaf548	0.10691315
190	0x3de7be14	0.113155514
191	0xbe72eff9	-0.23724355
192	0xbe8b7361	-0.27236465
193	0xbe651874	-0.2237261
194	0x3e6bd125	0.23029001
195	0xbdfc4127	-0.12317114
196	0xbe23cdaa	-0.15996423
197	0x3e8b77b9	0.2723978
198	0xbbc282fb	-0.0059360242
199	0xbe20db1c	-0.15708584
200	0xbe01e879	-0.12686338
201	0x3e9469d5	0.28986993
202	0x3e037aa0	0.12839746
203	0xbe20ed74	-0.15715581
204	0xbd7ed409	-0.06221393
205	0xbe73e6b8	-0.23818481
206	0x3dfd52d0	0.12369311
207	0xbe095090	-0.13409638
208	0x3e433724	0.19064003
209	0x3e456c46	0.19279584
210	0xbda1c3ad	-0.0789865
211	0xbd913775	-0.07090656
212	0xbd46d651	-0.04854423
213	0xbe3156f6	-0.17318329
214	0x3dc3b3bb	0.09555765
215	0xbe5d7bd9	-0.21629275
216	0xbd4f0803	-0.05054475
217	0xbd741fa3	-0.059600484
218	0xbdb5e854	-0.08882204
219	0x3d48bc2e	0.049007587
220	0xbd56d7cb	-0.05245189
221	0xbc8738e3	-0.016506618
222	0x3cdbfb78	0.026853308
223	0x3e47be42	0.19506171
224	0x3de5f5a6	0.11228494
225	0xbe015f1d	-0.12633939
226	0xbdb1df2d	-0.086851455
227	0xbdef51d0	-0.11685526
228	0xbdfbebbb	-0.123008214
229	0xbe36cf03	-0.17852406
230	0x3b611593	0.0034345135
231	0xbe4bc748	-0.19900239
232	0x3e73596a	0.23764578
233	0x3e5c490b	0.21512239
234	0xbe87ac57	-0.26498672
235	0x3d70249b	0.05862866
236	0x3e3fc4dd	0.18727441
237	0x3df12a16	0.117756054
238	0x3e06170b	0.13094728
239	0x3e815b46	0.2526495
240	0xbe31f5db	-0.17378943
241	0x3e22ffd2	0.159179
242	0xbd9e1e66	-0.07720642
243	0xbd91e575	-0.071238436
244	0xbe65be48	-0.22435868
245	0x3e81213a	0.25220662
246	0x3e6ed3b4	0.23322946
247	0x3e732a88	0.23746693
248	0x3da4e91e	0.08052276
249	0xbdb7ad92	-0.08968653
250	0xbe1af1f3	-0.15131359
251	0xbe771f9c	-0.24133152
252	0xbe15059c	-0.14552921
253	0xbab51fce	-0.0013818683
254	0xbdb0725a	-0.08615561
255	0xbe6b2c6c	-0.22966164

layers.0.bias f4 [64]
0	0xbd13814b	-0.036011975
1	0xbd8195b6	-0.06327383
2	0xbd28cd81	-0.04121161
3	0x3d90c8c5	0.07069544
4	0xbe136d26	-0.14397106
5	0xbe583e5e	-0.21117541
6	0xbe93e448	-0.28885102
7	0x3e5ccf01	0.2156334
8	0x3e2fce38	0.1716851
9	0x3e00933a	0.12556162
10	0x3e8dd7d4	0.27703726
11	0x3e7406dc	0.23830742
12	0xbe573de6	-0.21019706
13	0xbda0dc66	-0.07854538
14	0x3cba2e5c	0.022727184
15	0xbe4b15d6	-0.19832548
16	0x3e2d6089	0.16931356
17	0x3e203963	0.15646891
18	0x3e4effee	0.20214817
19	0xbe0d2339	-0.13782968
20	0xbe8b0afe	-0.27156824
21	0xbcb3822b	-0.021912655
22	0x3e4aae55	0.19793065
23	0x3be97e29	0.007125635
24	0x3d6ad810	0.05733496
25	0xbe37ea03	-0.17960362
26	0xbe3b2cf7	-0.18278871
27	0xbd8349a5	-0.06410531
28	0xbd39e17b	-0.04538105
29	0xbe3235d7	-0.17403351
30	0x3db8e459	0.09027929
31	0x3e667970	0.22507262
32	0xbd06506a	-0.032791533
33	0xbdd423c5	-0.10358385
34	0x3e44067b	0.19143097
35	0xbe0687ed	-0.13137789
36	0x3dacac9c	0.0843136
37	0xbe3e5bea	-0.1858975
38	0xbe6c772c	-0.23092335
39	0x3e7806ca	0.2422134
40	0xbe4cfea5	-0.20019014
41	0x3e23d32d	0.15998526
42	0x3e6a2d31	0.22868802
43	0xbe1cbadd	-0.15305658
44	0xbe536c98	-0.20646894
45	0x3e482a71	0.1954744
46	0xbc85296e	-0.016255107
47	0xbe477eed	-0.19482012
48	0xbd8bc2b0	-0.06824243
49	0xbe659eb0	-0.22423816
50	0xbe298915	-0.16556199
51	0xbda41ed0	-0.080136895
52	0x3e3e7560	0.18599463
53	0x3db4f53b	0.088358365
54	0x3e7a3d85	0.2443753
55	0x3e7eb0a4	0.2487207
56	0xbd6b7a6f	-0.05748981
57	0x3e707bb0	0.23484683
58	0xbce61ee7	-0.028090907
59	0xbdc733ef	-0.097267024
60	0xbdc97f85	-0.098387755
61	0x3e79d68f	0.24398254
62	0xbe6247a9	-0.22097649
63	0xbe214b10	-0.1575129

layers.2.weight f4 [32, 64]
0	0xbd9a58ca	-0.075364664
1	0x3caada41	0.020856025
2	0x3b948027	0.0045318785
3	0xbdcfe7d9	-0.10151643
4	0x3c4b8c6f	0.012423619
5	0x3de104ac	0.10987219
6	0x3db27bee	0.08715044
7	0xbb03735e	-0.0020057778
8	0xbd756e3c	-0.05991958
9	0xbdbd4dc5	-0.09243349
10	0x3d95c83c	0.07313582
11	0xbe096dd7	-0.13420807
12	0x3d38b0d8	0.045090526
13	0xbe020fd1	-0.12701346
14	0xbccd0777	-0.025027974
15	0xbe14f874	-0.14547902
16	0x3dc2c187	0.09509569
17	0x3dd28b70	0.10280502
18	0xbb960cf8	-0.0045791827
19	0x3dc8deb8	0.09808105
20	0x3cacca7f	0.021092651
21	0x3d9363b9	0.07196755
22	0x3e3597c9	0.17733683
23	0x3da7383f	0.08165025
24	0xbd768d83	-0.06019355
25	0x3dc7d05a	0.09756537
26	0x3d89acc5	0.06722406
27	0x3d01ceb0	0.031691253
28	0x3debae69	0.115078755
29	0xbe0ad5c3	-0.13558106
30	0xbda2077d	-0.079115845
31	0x3dcf224f	0.10113966
32	0xbd10d3d9	-0.035358284
33	0xbdceca68	-0.100972
34	0x3cca2117	0.024673982
35	0xbdb604cb	-0.08887633
36	0x3b5ca753	0.003366907
37	0xbdbd422b	-0.09241136
38	0x3d022d38	0.031781405
39	0x3ca1286b	0.019672593
40	0xbdf0efd7	-0.11764496
41	0xbddffdd6	-0.10937087
42	0x3d5ea157	0.054353084
43	0x3c3fa1d0	0.011696294
44	0xbdae7d65	-0.08520011
45	0xbd9ee38c	-0.07758245
46	0xbc28ff22	-0.010314735
47	0x3d93c235	0.072147764
48	0xbd8d468f	-0.068982236
49	0x3dc17afa	0.09447284
50	0xbd250de5	-0.040296454
51	0xbccbe158	-0.024887726
52	0xbdb05786	-0.08610444
53	0xbda4d6d3	-0.08048787
54	0xbe3530e8	-0.17694438
55	0xbcaf7e24	-0.021422453
56	0x3d384be4	0.04499425
57	0xbd9554ce	-0.07291566
58	0xbdda69a7	-0.10664683
59	0xbd85e1f0	-0.06537235
60	0xbd40cfd8	-0.047073215
61	0x3da4dfc6	0.08050494
62	0xbd63d7f7	-0.055625882
63	0xbdfd3ccd	-0.123651125
64	0x3da3fd26	0.080072686
65	0xbd87407a	-0.06604095
66	0x3d68dd4c	0.05685167
67	0x3d1f4a5e	0.03888928
68	0xbd25adf7	-0.04044911
69	0x3d42c29b	0.04754887
70	0x3dcdc30a	0.100469664
71	0xbc8c8d7c	-0.017157309
72	0x3d00b546	0.031422876
73	0xbde6aef1	-0.11263836
74	0xbd4afc1e	-0.049556844
75	0xbd379e06	-0.044828437
76	0x3c0d176c	0.008611541
77	0xbd51c1f7	-0.05121037
78	0x3c89fbb1	0.016843649
79	0x3d0e7521	0.03477967
80	0xbdb78493	-0.089608334
81	0x3d735d1a	0.05941496
82	0x3b948bb3	0.004533255
83	0x3df25879	0.11833281
84	0x3d11f623	0.035635125
85	0xbd205973	-0.039147805
86	0x3d57d991	0.052697722
87	0x3d5009ef	0.050790723
88	0xbd995102	-0.07486154
89	0xbc9ec966	-0.019383144
90	0x3d1ac82e	0.037788562
91	0xbbaf6b93	-0.0053534
92	0x3c5d4906	0.01350618
93	0xbd70879e	-0.058723085
94	0x3d96c552	0.073618546
95	0x3d107d8f	0.035275992
96	0x3dc4d16a	0.09610255
97	0x3c1906e7	0.009340025
98	0xbd27e29f	-0.040987607
99	0x3da37492	0.079812184
100	0x3db8302b	0.08993562
101	0xbca21c05	-0.019788751
102	0xbda1d1b4	-0.07901326
103	0x3d11920a	0.035539664
104	0xbe005452	-0.12532166
105	0xbdfcb36e	-0.12338911
106	0xbd082c28	-0.033245236
107	0xbd5a48f4	-0.05329223
108	0xbd7ff75a	-0.062491752
109	0x3d169059	0.036758754
110	0x3dcadfda	0.099059775
111	0xbd6d77fe	-0.05797576
112	0x3c66a67b	0.014077778
113	0xbd4e77c3	-0.050407182
114	0x3de79a91	0.11308778
115	0x3d3c7328	0.04600826
116	0x3d556643	0.052099477
117	0x3c208719	0.009797835
118	0x3dc0058c	0.09376058
119	0x3cbbdfb7	0.022933824
120	0xbce3b603	-0.02779675
121	0x3de217e8	0.11039716
122	0xbd76bbc9	-0.06023768
123	0x3d32eff7	0.04368588
124	0xbd4d8064	-0.05017127
125	0xbe017c58	-0.1264509
126	0xbd582710	-0.052771628
127	0xbd7e0765	-0.06201877
128	0x3dd30b9d	0.103049494
129	0xba5bcb06	-0.000838444
130	0xbd9061f6	-0.070499346
131	0xbd698bf3	-0.05701823
132	0x3d239bc5	0.039943475
133	0x3ce7bcc1	0.028288247
134	0x3da806ef	0.082044475
135	0xbd9cd8cc	-0.07658538
136	0x3d90b3a6	0.07065515
137	0x3dfe5800	0.124191284
138	0x3d623fb1	0.055236522
139	0x3dc0882e	0.09400974
140	0x3dee56f8	0.11637682
141	0x3d689b8c	0.056788966
142	0x3dc507b2	0.096206084
143	0x3d486d69	0.048932467
144	0xbc9ec313	-0.019380128
145	0xba38a3aa	-0.0007043431
146	0x3d07b753	0.033133816
147	0x3d8c1c32	0.06841315
148	0xbd0efe60	-0.03491056
149	0xbd4e6bf2	-0.050395913
150	0x3b4ec6cd	0.00315516
151	0x3d842502	0.06452371
152	0xbd2009de	-0.03907191
153	0xbda972ff	-0.08273887
154	0xbda098b9	-0.078416295
155	0x3db9b1eb	0.09067138
156	0xbd210d98	-0.039319605
157	0x3df64946	0.120256945
158	0xbdc0cff0	-0.09414661
159	0x3dd6dc1a	0.104912
160	0xbd9d09a7	-0.07667857
161	0x3c5d2474	0.013497461
162	0xbd7eadd2	-0.062177487
163	0x3d9ceabe	0.07661961
164	0x3db88eca	0.0901161
165	0xbd01336d	-0.031543184
166	0x3ddfc5a7	0.10926371
167	0x3d02b19c	0.031907663
168	0x3d64734f	0.05577403
169	0xbdeb2301	-0.11481286
170	0xbdb8445d	-0.08997414
171	0x3ddfcf02	0.109281555
172	0x3d0b1d1a	0.0339633
173	0xbdf501c6	-0.11963229
174	0x38c020c8	9.1613794e-05
175	0x3ce556b1	0.02799544
176	0xbd04afe5	-0.03239431
177	0x3de74c8d	0.11293898
178	0xbc7296e0	-0.014806479
179	0x3dcb3394	0.09921947
180	0x3ca26388	0.01982285
181	0xbd29f556	-0.041493736
182	0x3d95c45d	0.07312844
183	0xbde454b1	-0.11148966
184	0xbc76ef7f	-0.015071749
185	0x3db26a0d	0.08711634
186	0x3da8719f	0.082247965
187	0x3d33c330	0.043887317
188	0xbd3e4064	-0.046448126
189	0xbdc99f5d	-0.09844849
190	0xbcfa60ae	-0.030563679
191	0x3df34b95	0.118796505
192	0x3e2c8a65	0.16849668
193	0x3dbb161e	0.09135078
194	0x3d0bc7ae	0.034125976
195	0x3d394a00	0.045236588
196	0xbd10e58b	-0.03537516
197	0x3c15267d	0.009103415
198	0xbd9c3e1f	-0.07629036
199	0x3da1f3fb	0.07907864
200	0x3d71d09a	0.05903683
201	0x3d8210d7	0.06350868
202	0x3c34de30	0.011039302
203	0x3d7da103	0.06192113
204	0xbcd9cd19	-0.026587056
205	0xbd48fc89	-0.04906896
206	0xbd67c860	-0.056587577
207	0x3da266cd	0.07929764
208	0xbde53a50	-0.11192763
209	0x3d415748	0.04720238
210	0x38f4df5a	0.00011676429
211	0x3c20b83b	0.009809549
212	0x3c92149f	0.017832099
213	0xbd9b6a20	-0.07588601
214	0xbce21a24	-0.027600355
215	0xbdbec6b5	-0.09315244
216	0xbdb2a08e	-0.087220296
217	0xbd558464	-0.05212821
218	0x3d6e339a	0.05815468
219	0xbdb05b89	-0.08611209
220	0x3d060798	0.032722086
221	0xbda95617	-0.082683735
222	0x3d5e1efe	0.054228775
223	0xbe0abfad	-0.13549681
224	0xbe045837	-0.12924276
225	0x3b2c0a77	0.0026251355
226	0xbce45b6f	-0.02787563
227	0x3d0a74ee	0.03380292
228	0x3de2eac3	0.110799335
229	0x3dc49198	0.09598082
230	0xbda87392	-0.08225168
231	0x3defdf64	0.1171253
232	0xbd4cb3c3	-0.04997612
233	0xbc840f81	-0.016120674
234	0xbe04d84b	-0.12973134
235	0x3cb668e6	0.022266816
236	0x3db89638	0.09013027
237	0x3d6164fb	0.055027943
238	0x3b78fe80	0.003799349
239	0xbdf256ff	-0.118329994
240	0xbc784598	-0.015153311
241	0x3c93bb9d	0.018033797
242	0xbddf4fb5	-0.10903875
243	0x3dc34562	0.09534718
244	0xbdcd39b2	-0.1002077
245	0xbd2dd41e	-0.04243862
246	0xbdc77745	-0.09739546
247	0xbc9a44f3	-0.018831706
248	0x3da91c5a	0.08257361
249	0xbdf471d2	-0.11935772
250	0xbd6c4279	-0.05768058
251	0x3d292e0b	0.041303676
252	0xbdde585c	-0.10856697
253	0x3d1edfe1	0.038787726
254	0xbd8b064a	-0.06788309
255	0xbddfb565	-0.1092327

layers.2.bias f4 [32]
0	0x3d5a95a3	0.05336536
1	0x3da1c2d4	0.07898489
2	0xbca3ecfd	-0.020010466
3	0xbb7a7bd2	-0.0038220775
4	0x3cee2f88	0.029075399
5	0xbdbce7df	-0.092239134
6	0xbdb05b02	-0.08611108
7	0x3d1c9e06	0.03823664
8	0x3d240408	0.040042907
9	0xbc8c9d37	-0.01716481
10	0xbd973b7f	-0.07384395
11	0xbdd74865	-0.10511855
12	0x3c8c4b61	0.017125787
13	0xbdb40f5d	-0.08791993
14	0xbdd18ceb	-0.10231956
15	0xbd8feba2	-0.07027365
16	0x3d796cbb	0.06089471
17	0x3c17358a	0.009229073
18	0xbdd405a7	-0.103526406
19	0x3de01339	0.109411664
20	0x3db252b2	0.08707179
21	0xbda594a4	-0.080849916
22	0xbdb2da40	-0.08733034
23	0x3dce2456	0.10065524
24	0xbde7eeba	-0.1132483
25	0xbd6e2d00	-0.058148384
26	0xbd527d4b	-0.05138902
27	0x3cace1e7	0.021103812
28	0x3d55453e	0.052067988
29	0x3dead2bb	0.11465975
30	0xbdafa6b2	-0.085767165
31	0x3d241f88	0.040069133

layers.4.weight f4 [1, 32]
0	0x3bae44fd	0.0053182826
1	0x3c717064	0.014736269
2	0x3d31b088	0.043381244
3	0xbdee5cf8	-0.11638826
4	0xbdf7f301	-0.12106896
5	0x3d870a9f	0.06593823
6	0xbe08db60	-0.13364935
7	0x3def2e0d	0.11678705
8	0xbdabee46	-0.083950564
9	0xbc8fb18d	-0.017540717
10	0xbe08a4e0	-0.13344145
11	0xbe0f3880	-0.13986397
12	0x3e08f611	0.13375117
13	0x3dd3c22f	0.10339772
14	0x3b9bab2c	0.00475063
15	0xbbffdd6b	-0.0078083775
16	0xbe0219b1	-0.12705113
17	0x3dbbb905	0.09166149
18	0x3c811110	0.015755206
19	0xbe2df286	-0.16987047
20	0x3e29b36e	0.16572353
21	0x3df72a9c	0.12068674
22	0x3e257c9e	0.16160819
23	0x3e1febbd	0.15617271
24	0x3d202e8a	0.039106883
25	0xbe252b43	-0.16129784
26	0x3df4c721	0.11952043
27	0xbe1e0ced	-0.15434618
28	0xbe0fef98	-0.14056242
29	0xbe318bbe	-0.17338464
30	0x3cc264ed	0.023729766
31	0x3de9e74b	0.11421069
