model_nn.pt (torch, 14738 bytes, 5 tensors)

layers.0.weight f4 [64, 13]
-0.072249085 0.25834972 0.19637589 -0.24637215 -0.22522813 0.24618503 -0.02602754 0.083246626
-0.29899138 -0.26116887 0.22895516 0.12512703 0.055706743 0.02323485 0.11163914 -0.22722356
0.02125241 0.007698361 0.13357657 -0.084428616 0.101134315 0.05053736 0.23536457 0.2691013
0.13194783 -0.27037257 0.116464086 0.11383187 0.12199883 -0.22242437 -0.10252805 -0.075563155
0.053639024 0.19226974 -0.10435436 -0.24793778 0.22594605 0.27151588 0.21057276 0.009056829
0.22644342 0.2573627 0.23867886 0.05978057 0.124523535 0.13151139 0.22435647 0.30824104
0.014928605 -0.047329612 0.11582739 -0.15789153 -0.061070662 -0.047980558 0.055422764 -0.19422135
-0.22501093 0.028487941 -0.22054535 0.11368252 0.1289492 -0.019471914 0.066260986 -0.069893815
-0.038063068 -0.13803542 -0.19634381 -0.01258105 0.017054707 -0.20538759 0.13708147 0.014448702
0.035207123 -0.23843913 -0.26590204 -0.19992235 0.025103152 -0.028852344 0.10360696 -0.18568057
-0.351416 -0.12073705 -0.19964021 -0.14743699 -0.08624744 0.0034761112 0.11442295 -0.008155078
-0.14559719 -0.18295597 -0.0607626 0.28174126 -0.2191271 -0.019917445 0.24723537 0.18248682
-0.19297531 -0.27478036 0.110343225 0.081277914 -0.2461915 0.1817159 -0.24931203 0.03513562
-0.007264533 -0.24744558 0.084570445 0.026817845 0.036460128 0.08449446 0.061233137 0.069611974
0.12327976 0.08901234 0.10922906 0.18222457 0.050551333 -0.10455216 -0.2667491 -0.04477189
0.117145486 0.03529668 0.24263567 -0.04883198 0.09743366 0.038598683 -0.24091017 -0.2641293
0.061559837 0.10920187 -0.2672919 -0.19970301 0.15188138 0.19046512 -0.1630494 -0.123069055
0.07454824 0.26728067 0.051547103 -0.26987955 0.014584455 -0.26704925 0.13243854 0.19181487
-0.08257995 -0.06806021 -0.04018282 -0.10448794 -0.21836579 -0.13212079 0.014317543 0.1281739
0.08584128 -0.09026097 0.07259366 0.19268957 0.16533443 0.10820686 -0.044607937 0.25711694
-0.14576484 0.2406153 0.18432306 0.24476416 -0.043327965 -0.11046822 0.15134943 -0.08382338
-0.16064192 -0.2720295 0.11104616 0.072487526 -0.24392213 0.24127015 0.15912893 -0.00022049986
0.26369837 -0.04326851 -0.021553785 0.17159146 -0.07528193 0.19092226 0.111116484 0.10602866
-0.23682417 0.076165795 0.08090217 -0.02934474 0.01327041 0.001889 0.0087662 0.04672617
-0.0010411564 -0.26581976 0.15799832 -0.06313472 -0.21472071 -0.18464902 0.24000405 -0.04575258
-0.14620525 0.00061634067 -0.23967037 -0.019577378 -0.2576 0.23632357 0.027527688 -0.26890966
0.10143267 0.1300667 -0.15920351 0.07814979 0.109604135 -0.14522806 -0.20694208 -0.017106377
0.063818865 0.2504591 -0.12517661 0.21160883 0.20302424 0.16761145 -0.060297772 0.18251671
-0.19021365 -0.0364618 0.23249729 0.283864 -0.0869519 -0.11825867 -0.022925528 0.18997459
0.16567409 -0.24150394 0.106707215 -0.1876133 -0.06228573 0.008419231 0.18775079 -0.15336694
0.3427686 0.21155334 0.13685751 -0.22793597 0.13544314 0.20879628 -0.20801546 -0.19241397
-0.19674544 -0.050376553 -0.031371366 -0.28579742 -0.10444821 0.034331795 -0.19685353 -0.20222348
00000000: 54f7 93bd 6a46 843e c316 493e fb48 7cbe
00000010: 34a2 66be ee17 7c3e b537 d5bc 357d aa3d
00000020: 6615 99be edb7 85be 3973 6a3e 4d21 003e
00000030: c12c 643d 0357 be3c 10a3 e43d 4bad 68be
00000040: 8919 ae3c 8842 fc3b 4cc8 083e e9e8 acbd
00000050: 821f cf3d 4300 4f3d 6903 713e a5c7 893e
00000060: 551d 073e 466e 8abe b984 ee3d af20 e93d
00000070: 86da f93d 37c3 63be 3afa d1bd dbc0 9abd
00000080: 98b4 5b3d 5ce2 443e bdb7 d5bd 67e3 7dbe
00000090: 675e 673e 2104 8b3e 63a0 573e 1863 143c
000000a0: c9e0 673e 0bc5 833e 3b68 743e 79dc 743d
000000b0: 3206 ff3d ecaa 063e b4bd 653e c5d1 9d3e
000000c0: 1c97 743c b2dc 41bd e936 ed3d 51ae 21be
000000d0: 3b25 7abd 4387 44bd fb02 633d f6e1 46be
000000e0: 4469 66be 8b5f e93c a4d6 61be 62d2 e83d
000000f0: 420b 043e 9083 9fbc d7b3 873d 7d24 8fbd
00000100: 05e8 1bbd 2859 0dbe 5a0e 49be c020 4ebc
00000110: 50b6 8b3c 2051 52be 165f 0c3e 40ba 6c3c
00000120: 5835 103d 6329 74be 5024 88be 72b8 4cbe
00000130: 20a5 cd3c c05b ecbc e32f d43d 0c23 3ebe
00000140: ccec b3be fd44 f7bd 7c6e 4cbe b9f9 16be
00000150: 7fa2 b0bd 78cf 633b 9456 ea3d e09c 05bc
00000160: 6e17 15be cf58 3bbe 34e2 78bd 6440 903e
00000170: db62 60be e929 a3bc 452b 7d3e d3dd 3a3e
00000180: 529b 45be 03b0 8cbe a1fb e13d 0975 a63d
00000190: a019 7cbe bc13 3a3e a74b 7fbe 5eea 0f3d
000001a0: 520b eebb 6062 7dbe 4533 ad3d 19b1 db3c
000001b0: 3757 153d 6e0b ad3d 99cf 7a3d b990 8e3d
000001c0: 197a fc3d 1a4c b63d 7cb3 df3d 1499 3a3e
000001d0: ea0e 4f3d 711f d6bd 5793 88be bb62 37bd
000001e0: f9e9 ef3d 4093 103d 7c75 783e 0b04 48bd
000001f0: 4c8b c73d a719 1e3d 28b1 76be f53b 87be
00000200: 2b26 7c3d 3ba5 df3d 7cda 88be f27e 4cbe
00000210: cb86 1b3e 4a09 433e 6cf6 26be a10b fcbd
00000220: bfac 983d 03d9 883e 0e23 533d a72d 8abe
00000230: a3f3 6e3c aeba 88be f89d 073e 1e6b 443e
00000240: ad1f a9bd 2763 8bbd be96 24bd c6fd d5bd
00000250: 489b 5fbe ac4a 07be 2194 6a3c 0540 033e
00000260: 8ecd af3d beda b8bd fcab 943d 6a50 453e
00000270: 6e4d 293e 8f9b dd3d d0b6 36bd d5a4 833e
00000280: 6143 15be db63 763e 2fbf 3c3e 75a3 7a3e
00000290: aa78 31bd 2a3d e2bd 58fb 1a3e 98ab abbd
000002a0: 517f 24be 7347 8bbe 2b6c e33d 5774 943d
000002b0: b9c6 79be 860f 773e b2f2 223e fb35 67b9
000002c0: 7903 873e 523a 31bd 9091 b0bc acb5 2f3e
000002d0: 6a2d 9abd 2081 433e 0a91 e33d 8e25 d93d
000002e0: 0982 72be d0fc 9b3d 09b0 a53d 6164 f0bc
000002f0: 226c 593c 5298 f73a 1ca0 0f3c f163 3f3d
00000300: 6977 88ba 8719 88be 50ca 213e c74c 81bd
00000310: bfdf 5bbe a214 3dbe 9fc3 753e 0f67 3bbd
00000320: d4b6 15be ec91 213a 266c 75be bd60 a0bc
00000330: 26e4 83be cefe 713e bf81 e13c 87ae 89be
00000340: efbb cf3d 3430 053e 3f06 23be ff0c a03d
00000350: 2278 e03d aab6 14be a0e8 53be ac22 8cbc
00000360: 77b3 823d 2d3c 803e 4c2e 00be fcaf 583e
00000370: 96e5 4f3e 56a2 2b3e ccfa 76bd a9e5 3a3e
00000380: 5ec7 42be f858 15bd c513 6e3e 9f56 913e
00000390: d613 b2bd 9a31 f2bd 51ce bbbc b388 423e
000003a0: 78a6 293e cf4c 77be 5089 da3d b31d 40be
000003b0: 521f 7fbd d0f0 093c be41 403e 390c 1dbe
000003c0: 5e7f af3e 70a1 583e 6024 0c3e 0c68 69be
000003d0: 9bb1 0a3e b1ce 553e 0102 55be 2b08 45be
000003e0: a377 49be a557 4ebd 437f 00bd 0a54 92be
000003f0: f1e8 d5bd 7f9f 0c3d f993 49be ac13 4fbe

layers.0.bias f4 [64]
-0.25260782 0.011543616 -0.089254096 -0.08144878 -0.2139934 0.14350808 0.12230051 0.040111694
0.14343075 0.20839846 -0.11790306 0.055798646 0.029675294 0.07118594 -0.23838724 -0.15299378
-0.21487042 0.019651646 -0.0320352 -0.10579016 0.14991502 0.039733283 -0.22611111 0.19904168
-0.14305407 -0.0888257 -0.17733304 0.033346355 -0.016188672 -0.01841697 -0.2330705 0.06874
0.18988876 -0.2732542 0.118992634 -0.16861676 0.1964351 -0.1642037 -0.20941791 0.06472486
-0.08085342 -0.11586522 -0.12254709 -0.19274049 0.19532867 0.13427737 0.043685965 -0.009853182
-0.17590716 -0.09018592 -0.26828048 -0.16089293 0.09182682 -0.28017542 -0.27413306 -0.07782665
-0.15180907 0.27195013 0.26209113 0.006662809 -0.09478106 -0.21973456 0.08362255 -0.0630422
00000000: d055 81be 6f21 3d3c daca b6bd 9ece a6bd
00000010: 1621 5bbe c8f3 123e b178 fa3d 294c 243d
00000020: 83df 123e 6866 553e 2977 f1bd 1f8d 643d
00000030: 9a19 f33c efc9 913d c91b 74be 67aa 1cbe
00000040: fe06 5cbe 7dfc a03c 5837 03bd 83a8 d8bd
00000050: 5383 193e 5ebf 223d ac89 67be 95d1 4b3e
00000060: c47c 12be 40ea b5bd cb96 35be 3096 083d
00000070: 1b9e 84bc 2fdf 96bc 08aa 6ebe 8fc7 8c3d
00000080: 3372 423e f9e7 8bbe 69b2 f33d dfa9 2cbe
00000090: 4826 493e 0425 28be a671 56be 788e 843d
000000a0: 7a96 a5bd bf4a edbd f8f9 fabd c35d 45be
000000b0: 3d04 483e 0280 093e 0ef0 323d 3e6f 21bc
000000c0: 0221 34be 65b3 b8bd 0f5c 89be 1ec1 24be
000000d0: b30f bc3d 2773 8fbe 2b5b 8cbe 9463 9fbd
000000e0: d673 1bbe 0c3d 8b3e cf30 863e b153 da3b
000000f0: 931c c2bd 1902 61be 4d42 ab3d 451c 81bd

layers.2.weight f4 [32, 64]
-0.07430108 0.044329066 -0.12698106 -0.08733935 -0.03708106 -0.09957616 0.0029757426 -0.05978947
0.0855752 0.07150104 -0.049213056 -0.087694824 -0.080096625 0.022411387 0.069035955 -0.00810999
-0.099673145 -0.033238437 0.0858298 0.037511334 0.059058297 -0.019499088 0.10953045 0.0023601204
0.11952396 -0.024612334 -0.06700297 0.048634697 0.09787192 -0.03947108 -0.064572565 0.052264422
0.07787994 0.0003611311 -0.005918521 -0.051163606 -0.09164756 -0.038297743 0.011827113 0.12296946
0.04383294 -0.043615267 -0.10063954 -0.013273472 0.08968661 0.020129172 0.038844857 -0.012659748
-0.0023460647 -0.09375169 0.09258006 -0.0538146 0.032666527 0.033017527 -0.113156825 -0.025088558
0.0843025 -0.051571764 0.086484075 -0.019832289 -0.00622815 0.057927635 -0.06090697 0.020473303
0.11072237 0.06078183 -0.055328388 0.0005295336 0.11892074 -0.10310072 0.093407586 -0.012270102
0.0751219 -0.050420966 -0.0018455267 0.08683218 0.0021516045 -0.02030414 0.1036965 0.02467363
-0.06596083 0.054225743 0.09732943 -0.09112809 -0.0951174 -0.02195335 -0.065207645 0.08920392
-0.08939478 0.026238961 -0.09496505 -0.101378836 0.0013480888 -0.06000951 0.1285799 0.03943368
-0.033206735 -0.08144581 0.084951326 0.06526282 -0.12712128 -0.13204841 0.06223989 -0.03957907
0.055800032 -0.10260622 0.1020869 -0.12414061 -0.032787308 -0.11831873 -0.03981642 0.051642485
0.0022212984 -0.0510314 0.12828271 -0.0077827876 0.04463481 0.10782146 -0.15884823 0.06600726
0.0961884 -0.07322925 0.03398859 0.055621363 0.096448205 0.11032703 0.06635188 -0.10551091
0.023732536 0.06618297 -0.1050871 0.116865836 -0.041369688 0.0053844303 0.15515518 -0.0018004525
0.059674066 -0.029784283 0.02464491 -0.07861721 0.11200997 -0.08216562 0.15264472 0.007997376
-0.029209241 0.09199291 -0.046781708 0.068994455 -0.009003871 0.021430215 -0.0062387325 -0.0015467504
-0.12118285 0.060511004 0.03810842 0.06802006 -0.0009762631 0.07725561 -0.0028148815 -0.00787319
0.045869756 0.07940198 0.034136366 -0.089710236 0.09284277 -0.082133874 0.05565374 -0.03803932
-0.07460772 0.08466598 -0.031270683 -0.022187633 0.045292933 -0.025718562 0.061802723 0.12963432
0.121303424 -0.08512522 0.018769229 0.009164619 0.008471931 0.05218909 -0.14818968 -0.006939136
-0.052444622 -0.062083006 0.07375257 0.022619298 0.036925703 0.034119226 0.09503729 0.018495608
-0.09498424 -0.124883614 0.037535947 -0.044778913 0.11170054 -0.0056850016 -0.010455847 0.063168235
0.10117424 -0.0002527535 -0.04585596 -0.1060399 0.08275373 0.021200832 -0.13160077 -0.03968304
0.06686929 -0.033306133 -0.054873697 0.09676195 -0.014746755 -0.01387082 0.08561887 0.120743796
-0.11999425 -0.0077295657 -0.014907707 0.018999591 -0.041653007 0.05048906 -0.1110436 -0.099964246
0.10804498 -0.06902251 -0.07435256 0.071650185 0.032163743 0.086218 0.05875635 -0.032893084
-0.12491065 0.06177409 -0.028062746 -0.0501218 0.08342786 -0.08170903 0.1018433 -0.08023143
-0.026336342 0.016638262 0.06393178 -0.080877915 0.07096558 0.10085359 0.10745345 -0.0983005
-0.03246832 -0.062458485 -0.1271901 -0.111599386 -0.06479624 0.032610133 0.08807577 0.028257355
00000000: 2a2b 98bd 6592 353d 5307 02be f9de b2bd
00000010: 4fe2 17bd 96ee cbbd ad04 433b cee5 74bd
00000020: 0d42 af3d 236f 923d a193 49bd 5899 b3bd
00000030: b309 a4bd 1698 b73c b962 8d3d c3df 04bc
00000040: 6f21 ccbd 0725 08bd 89c7 af3d 7ca5 193d
00000050: 1de7 713d 8dbc 9fbc 8051 e03d 40ac 1a3b
00000060: fac8 f43d ce9f c9bc da38 89bd 2d35 473d
00000070: 1371 c83d 6dac 21bd 9f3e 84bd 3813 563d
00000080: 857f 9f3d 3256 bd39 27f0 c1bb ee90 51bd
00000090: b7b1 bbbd 18de 1cbd 82c6 413c 6ad7 fb3d
000000a0: 2b8a 333d eca5 32bd 1a1c cebd fa78 59bc
000000b0: 9dad b73d efe5 a43c c91b 1f3d d56a 4fbc
000000c0: 6fc0 19bb e300 c0bd 9d9a bd3d b36c 5cbd
000000d0: 56cd 053d 633d 073d c4be e7bd 8586 cdbc
000000e0: caa6 ac3d ea3c 53bd 901e b13d 5377 a2bc
000000f0: 8215 ccbb 8745 6d3d 9679 79bd a1b7 a73c
00000100: 69c2 e23d 5ef6 783d 05a0 62bd 66d0 0a3a
00000110: b88c f33d 7826 d3bd 7a4c bf3d 8a08 49bc
00000120: 83d9 993d 3786 4ebd 9ae5 f1ba 12d5 b13d
00000130: ef01 0d3b de54 a6bc d55e d43d 5a20 ca3c
00000140: 7916 87bd d01b 5e3d a754 c73d 5da1 babd
00000150: e9cc c2bd 83d7 b3bc 968b 85bd 8bb0 b63d
00000160: 9c14 b7bd 17f3 d63c 097d c2bd b59f cfbd
00000170: 5bb2 b03a 88cc 75bd 73aa 033e 3685 213d
00000180: c903 08bd 10cd a6bd f6fa ad3d 83a8 853d
00000190: 152c 02be b337 07be 41ef 7e3d aa1d 22bd
000001a0: 938e 643d 3623 d2bd f012 d13d 6f3d febd
000001b0: fc4b 06bd 1751 f2bd 8b16 23bd 1287 533d
000001c0: 3493 113b 4d06 51bd 8b5c 033e c106 ffbb
000001d0: fed2 363d 7fd1 dc3d 1ca9 22be d02e 873d
000001e0: 6dfe c43d 38f9 95bd 9f37 0b3d 3ad3 633d
000001f0: a386 c53d 23f3 e13d 7fe3 873d 1b16 d8bd
00000200: bc6a c23c f08a 873d e837 d7bd 5b57 ef3d
00000210: 4373 29bd e06f b03b 00e1 1e3e 29fd ebba
00000220: cb6c 743d 2bfe f3bc 1fe4 c93c 0f02 a1bd
00000230: 7c65 e53d 7346 a8bd e64e 1c3e 6d07 033c
00000240: 3848 efbc c766 bc3d 2d9e 3fbd f74c 8d3d
00000250: f984 13bc 6b8e af3c 486e ccbb 55bc caba
00000260: b72e f8bd 63da 773d 9317 1c3d 1a4e 8b3d
00000270: e8eb 7fba 3038 9e3d e079 38bb 8dfe 00bc
00000280: ede1 3b3d 819d a23d 93d2 0b3d 00ba b7bd
00000290: 5a24 be3d ce35 a8bd 2df5 633d 1ecf 1bbd
000002a0: efcb 98bd 5b65 ad3d b015 00bd d7c2 b5bc
000002b0: 1585 393d bcaf d2bc da24 7d3d dcbe 043e
000002c0: ee6d f83d 2256 aebd edc1 993c 3327 163c
000002d0: dbcd 0a3c 3ac4 553d 09bf 17be b161 e3bb
000002e0: 2cd0 56bd c04a 7ebd 960b 973d 1b4c b93c
000002f0: 683f 173d 9ac0 0b3d e9a2 c23d 1a84 973c
00000300: 1987 c2bd fbc2 ffbd 4bbf 193d 186a 37bd
00000310: 41c3 e43d 4049 babb 004f 2bbc 595e 813d
00000320: 7134 cf3d 0084 84b9 76d3 3bbd 722b d9bd
00000330: ca7a a93d 5ead ad3c 5ac2 06be af8a 22bd
00000340: c4f2 883d 036c 08bd 3ec3 60bd 212b c63d
00000350: 609c 71bc 7042 63bc f258 af3d 8648 f73d
00000360: 8cbf f5bd 4c48 fdbb 753f 74bc 08a5 9b3c
00000370: 589c 2abd 9ecd 4e3d d46a e3bd 0eba ccbd
00000380: b046 dd3d ac5b 8dbd 2846 98bd 55bd 923d
00000390: 21be 033d 1093 b03d 80aa 703d e6ba 06bd
000003a0: 28d1 ffbd d406 7d3d d8e3 e5bc 844c 4dbd
000003b0: 3adc aa3d 1057 a7bd 3893 d03d 6050 a4bd
000003c0: 50bf d7bc f74c 883c aaee 823d 52a3 a5bd
000003d0: 6756 913d 548c ce3d 8e10 dc3d c651 c9bd
000003e0: 80fd 04bd 78d4 7fbd 1f3e 02be 388e e4bd
000003f0: e4b3 84bd 3492 053d 1261 b43d f87b e73c

layers.2.bias f4 [32]
-0.06161382 0.14478008 -0.019400915 0.06533721 -0.13141137 0.1229378 -0.029105712 -0.048083443
0.05716741 -0.017172016 -0.10158072 0.034144294 0.03554817 0.08243259 0.039542414 -0.0058707194
-0.08746609 0.0877867 0.11266056 0.07618373 -0.12828997 -0.054184582 0.08611111 -0.14212961
0.06673397 0.092571646 0.07898735 -0.061202213 -0.104959756 -0.049423583 -0.082310244 -0.01291887
00000000: c65e 7cbd 3b41 143e abee 9ebc 84cf 853d
00000010: b490 06be d0c6 fb3d 1a6f eebc 25f3 44bd
00000020: 6028 6a3d 54ac 8cbc 8d09 d0bd e3da 0b3d
00000030: f59a 113d 6bd2 a83d 3af7 213d 2a5f c0bb
00000040: 6c21 b3bd 83c9 b33d 94ba e63d 3706 9c3d
00000050: 725e 03be a7f0 5dbd 065b b03d 6d8a 11be
00000060: d2ab 883d 3496 bd3d 1fc4 a13d 2caf 7abd
00000070: 24f5 d6bd 6270 4abd 4692 a8bd aba9 53bc

layers.4.weight f4 [1, 32]
0.08843912 -0.15095107 -0.024709107 0.15383264 0.07050024 -0.12658471 0.1578382 0.060083706
-0.07611904 0.16375409 -0.03581022 0.012790219 -0.08325957 -0.14507575 0.08997611 0.0317036
-0.1708608 0.06526839 0.07186687 0.06429397 0.16719125 0.054596063 0.07052082 0.035649993
-0.17073387 0.1263224 -0.041204855 -0.091142304 -0.09046535 -0.018064596 0.10206579 -0.092244096
00000000: 921f b53d eb92 1abe c16a cabc 4e86 1d3e
00000010: 6e62 903d 6c9f 01be 56a0 213e 551a 763d
00000020: 4de4 9bbd 27af 273e bdad 12bd 118e 513c
00000030: fe83 aabd bd8e 14be 6545 b83d a2db 013d
00000040: 22f6 2ebe 6fab 853d f02e 933d 8fac 833d
00000050: 2f34 2b3e 1fa0 5f3d 386d 903d ba05 123d
00000060: dcd4 2ebe a95a 013e 6cc6 28bd d1a8 babd
00000070: e645 b9bd 34fc 93bc de07 d13d 79ea bcbd
